percobaan3.tflite (tflite, 519652 bytes, 16 tensors)

sequential_6/dense_37/BiasAdd/ReadVariableOp f4 [3]
000000 97 a0 4f be 4f b6 1b 3e c3 a2 4f 3d
       -0.20276104 0.15206264 0.05069233

sequential_6/dense_36/BiasAdd/ReadVariableOp f4 [64]
000000 88 40 66 3c 27 70 50 3c 21 13 c6 3c 88 77 69 bd
       0.014053471 0.012722052 0.024179043 -0.05699876
000010 00 00 00 00 b1 8b ff bc 9e dc 82 bc 7f fe 5b bb
       0.0 -0.03119454 -0.01597434 -0.003356844
000020 c5 8a a5 3d 14 d9 b2 3d 4e 4f b8 3d ca a5 84 3d
       0.08083109 0.087328106 0.08999501 0.06476934
000030 00 00 00 00 72 26 da 3d 60 1b c6 bc 07 47 7f bc
       0.0 0.10651864 -0.024182975 -0.015580899
000040 be 75 d0 3c 67 97 2f 3d b3 6d eb 3d db 77 62 bd
       0.025446769 0.042868998 0.11495533 -0.055290084
000050 34 a5 f3 bd d8 2e 0f 3d 49 df 0e 3e 25 55 06 3e
       -0.11896744 0.034956783 0.13952364 0.13118418
000060 e1 53 87 3e a2 20 20 3a 42 75 59 3a 12 9d 0d 3e
       0.26431182 0.00061083783 0.0008295366 0.13829449
000070 4b 14 13 3e d7 6d 57 bd bf 35 3a 3e 0d fd b8 bc
       0.1436321 -0.052594986 0.18184565 -0.022581602
000080 e7 db e6 bb b2 d7 dd bc 2d 02 a3 3d 30 3b b1 3c
       -0.0070452574 -0.02708039 0.07959399 0.021634668
000090 34 0d 67 3d 65 5c 65 bc 32 40 5b 3d 44 82 db bd
       0.056409076 -0.013999079 0.05352802 -0.107182056
0000a0 3b ca 18 bd 2f ef 01 bd b3 b9 03 bd bd 99 fd b7
       -0.037302237 -0.031722244 -0.03215952 -3.023154e-05
0000b0 39 4a 84 3d 33 29 84 3d ab ed ac 3d 5c 30 17 3d
       0.06459469 0.064531706 0.08443769 0.036911353
0000c0 06 42 38 bd ed 09 63 bd 10 ab 35 bd 52 c4 91 3d
       -0.04498484 -0.055429388 -0.04435259 0.07117523
0000d0 b6 27 ab 3c fd be a2 bc ec b6 ae 3a 1d f7 62 3c
       0.02089296 -0.019866461 0.0013329661 0.013852862
0000e0 0f 83 99 3d 74 71 fb 3c 00 00 00 00 e0 1f 10 bd
       0.074957006 0.030693747 0.0 -0.03518665
0000f0 6e 27 19 be fd d1 e6 bc 34 84 3a bd 39 56 e2 bb
       -0.14956447 -0.028176302 -0.045536235 -0.006907251

sequential_6/dense_35/BiasAdd/ReadVariableOp f4 [64]
000000 ec ae 7e 3d 2a d3 02 be a0 53 65 bc ca dd 6e bc
       0.062178537 -0.12775865 -0.013996989 -0.014579246
000010 4a ef 87 bb 69 94 27 3d 00 00 00 00 1a 49 93 bc
       -0.0041483985 0.04091302 0.0 -0.017979193
000020 50 a3 65 bb 00 e4 04 3e b1 67 1b 3d 01 e4 02 bd
       -0.0035039969 0.129776 0.037940685 -0.031955723
000030 53 e6 24 bc 37 0f 6e ba c9 65 26 3d 7d 8e e3 bc
       -0.010064679 -0.00090812467 0.040624414 -0.027777905
000040 34 56 91 39 d1 f6 59 bd 79 e3 90 3d 39 0b 39 bc
       0.00027720782 -0.053213898 0.07074637 -0.01129418
000050 71 fa a5 3a c3 6b 66 3d 7c 3e 9c 3d fb d1 44 bc
       0.0012663138 0.056255113 0.076291054 -0.012012954
000060 40 02 9c 3d 78 d2 52 b8 a9 a0 b7 3d c3 db aa bb
       0.07617617 -5.0263916e-05 0.0896619 -0.005214186
000070 2f 34 89 3d e0 d9 aa bc 6a 67 4a b9 02 6b f2 bc
       0.06699406 -0.020855844 -0.00019302746 -0.02959204
000080 7f e6 dd bb 0d af 23 bb 81 d5 be 3d 53 c2 96 3d
       -0.006771862 -0.0024976165 0.093180664 0.07361283
000090 b0 d1 7c bc b5 16 3d 3d e6 88 f3 bd a7 5d 42 3d
       -0.015430853 0.046164233 -0.11891346 0.047452595
0000a0 72 94 7d 3c 11 c1 a1 3d a5 37 bd 3c ca 1f e4 3c
       0.015477287 0.078981526 0.023097822 0.02784719
0000b0 d6 ac 08 3d fc c8 65 3c 19 66 c8 bc 00 00 00 00
       0.033367954 0.014024969 -0.024462746 0.0
0000c0 b6 5a f6 bc 9e 9e 33 bd 26 77 9a 3c 61 41 7e 3d
       -0.030072551 -0.04385244 0.018855643 0.06207407
0000d0 ad 1b cc bc 3d 8b 13 bd e2 c9 4b 3c 92 10 c8 3d
       -0.02491554 -0.03602146 0.012438269 0.097687855
0000e0 d1 77 e0 3d 6f dc 32 bd 00 00 00 00 5c c2 f8 3d
       0.10960353 -0.043667253 0.0 0.12146446
0000f0 a7 5e 96 3d 7e 3d 89 bd 96 b1 32 3c 1e 71 24 3d
       0.07342272 -0.06701182 0.010906598 0.04014694

sequential_6/dense_34/BiasAdd/ReadVariableOp f4 [128]
000000 b4 99 42 3d a7 bd b0 3c d5 53 90 3d 8a de 3b bc
       0.047509864 0.021574808 0.0704724 -0.011466632
000010 a5 f4 02 bd bc cc 47 ba b2 91 4d bb 09 9f f6 bc
       -0.031971592 -0.00076217554 -0.0031367359 -0.03010513
000020 8e be 31 be 87 76 b6 3d 7d 4b b2 bb 17 5c b7 3b
       -0.17357847 0.08909326 -0.005441128 0.0055956948
000030 b8 34 fb 3d fc 83 c0 bb 68 47 06 bb 7c 7c 36 3d
       0.12265915 -0.0058751088 -0.0020489339 0.04455231
000040 00 00 00 00 f1 f3 8c 3d f2 71 3a ba fb bb 22 3c
       0.0 0.06882466 -0.0007112316 0.009932513
000050 40 a3 95 bd ff 04 83 3d 6d 50 85 3d b5 e1 91 bd
       -0.07306528 0.06397437 0.065094806 -0.07123128
000060 1a c4 2c bd 57 8b 31 bc 4e f4 ca 3d c7 0f 72 bc
       -0.042179205 -0.010836444 0.09909879 -0.014774269
000070 a2 96 ba bc d2 e6 3e b7 9f b8 86 3c 8d 10 9c bc
       -0.022776905 -1.1378625e-05 0.016445456 -0.01905086
000080 d7 17 35 bd a6 03 88 3d 85 51 27 be 4a 7c 3e bd
       -0.04421219 0.06641321 -0.16339691 -0.04650525
000090 e4 07 e8 bb 49 dc 06 3e c4 c3 0e 3d 80 11 03 bd
       -0.0070810188 0.1316997 0.034854665 -0.03199911
0000a0 03 9a c9 3d 84 7e 23 be a1 65 07 3c 8c 7e cc bc
       0.098438285 -0.1596623 0.008263976 -0.024962686
0000b0 ab ff 5f 3d 1c 32 4a 3d 45 ad 15 36 2a 0b 8b 3d
       0.054687183 0.049364194 2.2303586e-06 0.06789239
0000c0 8c fc 21 bb 1c d0 c4 bc f0 0e c2 3a e6 30 13 be
       -0.002471718 -0.024025016 0.0014805477 -0.14374122
0000d0 a1 dd db 3c cc cb e1 3b 2c a5 bc bb 7d 76 0f bd
       0.02683908 0.0068907496 -0.0057569947 -0.03502511
0000e0 ac 6a 0b 38 00 00 00 00 22 6c ed 3c 00 00 00 00
       3.323953e-05 0.0 0.028982226 0.0
0000f0 00 00 00 00 42 2b 13 be 46 e6 ae 3d ec 6b 04 bd
       0.0 -0.1437197 0.08540015 -0.032329485
000100 f5 8b 0e 3e 5a d7 2d 3c c6 73 d3 3b c0 65 9d 3d
       0.13920577 0.010610426 0.0064530103 0.07685423
000110 e0 71 42 bd bf 72 41 3d 15 84 3b 3d 92 b7 29 3e
       -0.04747188 0.04722857 0.04578026 0.16573933
000120 15 11 8e bc 17 44 55 bb b5 6a 16 3d 00 00 00 00
       -0.01734213 -0.0032541805 0.036722858 0.0
000130 ef c9 19 bc eb 30 91 bd ce 45 04 3d f7 38 28 bd
       -0.009386524 -0.070894085 0.032293133 -0.04106995
000140 7c 52 99 3d ed 3a b4 3c df 44 30 3d f3 b9 41 3d
       0.07486436 0.022000754 0.04303443 0.047296476
000150 fb 6a a7 bd a7 2d 0b be 03 cd 4e 3c b3 7a 3d 3d
       -0.08174702 -0.13591634 0.012622121 0.046259593
000160 41 fb 2c 3d 00 00 00 00 f1 a7 e6 bc bd 85 32 3d
       0.042231802 0.0 -0.028156253 0.043584574
000170 ea de 9c 3c af 6e f0 3c a5 9d 44 3d 33 39 26 3d
       0.019149262 0.029349653 0.048001904 0.040581893
000180 d2 3d 19 bc f1 35 cc 3d f8 be 69 3e 97 63 ce bc
       -0.009353118 0.09971226 0.22826755 -0.025193973
000190 e6 36 0c 3d 04 83 3f 3c 34 61 7a 3c ad 63 6f 3b
       0.034232043 0.011688951 0.015281964 0.0036527917
0001a0 0d bf da 3c 3b 9f 3d 3d 94 38 c5 3c 00 00 00 00
       0.026702428 0.046294432 0.02407483 0.0
0001b0 1b b2 86 3a ad 82 36 3c b3 85 86 b7 b6 23 21 3c
       0.0010276468 0.011139554 -1.6036303e-05 0.009835174
0001c0 a0 22 1b 3d 30 20 26 bd 4c 60 2e 3d c1 9c a0 3d
       0.037874818 -0.04055804 0.042572305 0.078423984
0001d0 26 0d 35 3e 8d d4 5c 3d 60 09 17 bc 19 bb 59 3d
       0.17680797 0.05391364 -0.009218544 0.053156946
0001e0 9d 48 cc 3c 48 05 df 3c 1f 3d 4d 3d 34 43 98 bc
       0.024936968 0.027224198 0.050107118 -0.018586732
0001f0 7d 28 79 38 92 fe fe 3c 4b 26 93 bb 5e 34 35 bb
       5.9403934e-05 0.031127248 -0.004490649 -0.0027649621

sequential_6/dense_33/BiasAdd/ReadVariableOp f4 [128]
000000 25 30 c8 3d 6b 49 cc bd 34 28 0c bd 35 67 0e bd
       0.09774808 -0.09974941 -0.03421803 -0.034766395
000010 1c 57 ee bd 3c 88 0c 3e 2d 12 04 3e 09 cb 2e 3d
       -0.116377085 0.13723844 0.12897559 0.0426741
000020 78 a6 35 3b 6f 8e 2c bd 8b 8f 7b 3d 10 c3 0c 3e
       0.0027717631 -0.042128023 0.06141619 0.13746285
000030 e3 cf fd 3c 79 6a 30 bd ed bc 0b bc f9 85 f1 ba
       0.030982917 -0.04307029 -0.00852893 -0.0018426768
000040 25 59 fe 3a c2 70 2b 3b 23 d2 b0 3d a4 26 d7 3c
       0.0019405229 0.0026159738 0.086338304 0.026263542
000050 c6 cf e0 b8 05 fb 22 bd 00 15 3e 3b f6 3b 0b bc
       -0.00010719853 -0.039790172 0.0029004216 -0.0084981825
000060 da c9 84 3d 00 00 00 00 a6 31 b7 bd 3f 6b ed 3d
       0.06483813 0.0 -0.089450166 0.11592721
000070 00 00 00 00 99 21 84 3e d7 ad 93 3d 17 8c 11 be
       0.0 0.25806883 0.07210892 -0.14213596
000080 4f 67 2b 3e c8 6d a8 bd 83 3e 7e bd 72 87 ad bb
       0.16738628 -0.08224064 -0.062071335 -0.0052956874
000090 a0 1d 11 bc cf db fd bd 8f 68 17 3d ad f9 4a 3d
       -0.008857161 -0.12395441 0.03696495 0.049554516
0000a0 20 bf 6a bc 01 43 09 3e 85 a9 74 3d 1d f1 ad bd
       -0.014327794 0.13404466 0.05973198 -0.08493254
0000b0 e2 ed 04 bc 6b 42 5b 3d de 24 9d 3d 45 19 b8 bb
       -0.008113356 0.053530138 0.076730475 -0.0056182467
0000c0 3c 28 8b 3d 9d 88 23 3c 85 6a c5 bc 75 42 a1 3d
       0.067947835 0.009981302 -0.024098644 0.07874004
0000d0 e7 e4 45 bd 35 9a 8e bc 91 70 21 bd 6c 8b 9d 39
       -0.048314 -0.017407516 -0.039413992 0.0003004925
0000e0 5e d9 ab 3d c0 88 80 bd 9f 70 2d bc e1 d1 61 bc
       0.08391069 -0.06276083 -0.010585933 -0.013782949
0000f0 26 ee aa bb cf b4 c7 3d 34 f4 d4 3d 7a 74 db 3c
       -0.005216378 0.097512834 0.103981405 0.026788939
000100 94 6b be bd 77 fa 12 3e fd 62 a6 3c 00 00 00 00
       -0.09297863 0.14353357 0.020310873 0.0
000110 a3 0d 71 ba 01 71 8c 3d 21 1c a8 3d 1e 88 09 bd
       -0.00091954524 0.06857491 0.0820849 -0.033577077
000120 67 04 60 3d 4b 52 95 bc a0 8b 1f be 2a 0a e4 bb
       0.0546917 -0.018227717 -0.15580606 -0.0069592195
000130 78 c9 a8 3d 1f 77 44 3d f7 e1 1d 3e 13 f1 05 3e
       0.08241552 0.047965165 0.1541823 0.13080244
000140 d9 0a 36 bd 02 6b 1f bb b7 ec 85 3e 0e c1 11 bd
       -0.04444394 -0.0024325256 0.26157162 -0.035584502
000150 7c 91 55 3e 00 00 00 00 3f 83 e7 3c 38 2a 89 bd
       0.20856279 0.0 0.028260825 -0.06697506
000160 16 3d 28 bd 47 ae e3 3b e2 52 3f 3c e1 09 d1 ba
       -0.04107388 0.0069482657 0.011677476 -0.0015948379
000170 5f 7b 5c ba 01 2f da 3c 48 bb 17 bd 7d 2d 55 3d
       -0.0008410718 0.026633741 -0.03704384 0.052045334
000180 09 f9 a1 bc d8 f7 bc 3d ee 0c 9d 3d e3 a5 55 b0
       -0.01977207 0.0922696 0.07668482 -7.772469e-10
000190 c7 5d 06 3e 00 00 00 00 40 2c 9a bb cb 6f 2f be
       0.1312171 0.0 -0.004704982 -0.1713249
0001a0 66 73 12 3e 33 ce 04 bd 5c 78 b4 3c 2b 31 b5 3d
       0.14301834 -0.03242321 0.022030048 0.08847269
0001b0 90 e7 fe bd c0 f5 19 3d 78 00 89 bc 00 00 00 00
       -0.12446511 0.03758788 -0.016723856 0.0
0001c0 56 ff b5 bd cc 36 98 bd ed ae 40 3a 5c fc 52 3c
       -0.08886592 -0.07432327 0.0007350285 0.01287755
0001d0 21 0a 87 3d 6c 04 53 3c 67 0c 11 3e f6 5e d8 3d
       0.06593729 0.012879472 0.14164887 0.10564987
0001e0 2a 33 cb bd 72 0e 0c bc ba 56 55 3c c4 68 18 3e
       -0.09921868 -0.008548366 0.0130211655 0.14883715
0001f0 53 18 a8 bd 30 f0 b1 b9 e8 c3 ef 3b 6e ea 45 3d
       -0.082077645 -0.00033939024 0.007317055 0.048319273

sequential_6/dense_32/BiasAdd/ReadVariableOp f4 [256]
000000 9b 7d f2 bd 4b 95 c2 bd b4 d3 5b bc d0 12 8b bd
       -0.118403636 -0.095011316 -0.013417173 -0.067906976
000010 8c 06 08 bd 98 ec 0a 3e dc 3c 92 3d 5c be b4 3c
       -0.03320937 0.13566816 0.07140514 0.022063427
000020 54 99 d6 b4 23 b9 ba bd 4d 71 26 3c 47 22 93 3d
       -3.9972167e-07 -0.09117343 0.010158849 0.07184272
000030 20 eb 21 b7 97 36 db 3c a6 90 02 be 46 7b 5b bc
       -9.651092e-06 0.026759429 -0.12750491 -0.01339609
000040 52 95 05 3c 0e 90 6d 3d 26 25 ab 3d 8e 53 78 bb
       0.0081532765 0.05799871 0.08356695 -0.00378916
000050 a8 75 69 bc 53 e4 07 be 20 dd 0e 3b f4 03 bc 3b
       -0.014249243 -0.13270693 0.0021799281 0.005737776
000060 c2 23 4f bd b0 cd 8a bc 52 38 20 bb c2 85 fa bc
       -0.05057121 -0.016943783 -0.0024447632 -0.030581359
000070 bd 29 cb 3c d6 b4 24 3e 0e 63 cd 3d d1 c2 39 3e
       0.024800176 0.16084608 0.10028659 0.18140723
000080 39 c1 c6 3d e6 d8 1d bd e0 3e 38 3e 40 34 04 3e
       0.09704823 -0.03853693 0.17992735 0.12910557
000090 0c d8 e5 3d 8c cc cc bc 0c ab 3e 3e 62 48 bb 3d
       0.11222848 -0.02499988 0.18619937 0.09144665
0000a0 e7 cc 2f bc 49 fc 47 bd 94 a4 80 3a 4f 9c f0 bd
       -0.010730005 -0.048824582 0.0009814673 -0.117485635
0000b0 df 24 81 3d 6b 15 94 3b f6 c0 0e 3c 20 5a 88 ba
       0.06305861 0.004519155 0.008712998 -0.0010402836
0000c0 21 d7 03 ba e7 63 64 bc 2b f8 65 bd 0f b9 97 bd
       -0.000502931 -0.013939834 -0.056144875 -0.07408344
0000d0 ac 02 9a 3d 73 a3 28 bd cb 3e f0 bd 1e d6 ce 3c
       0.07520041 -0.041171502 -0.11730727 0.025248583
0000e0 96 76 40 bd 6a 78 9c ba ba ed e9 bc 77 df 2b bb
       -0.046988092 -0.0011937742 -0.02855574 -0.0026225725
0000f0 c5 41 a2 bd 33 d8 2a 3d a9 2b 71 3d 93 25 36 3d
       -0.07922701 0.04171009 0.05887953 0.044469427
000100 f3 52 ac bd 3b 98 c6 3c 26 9c ae 3c 15 15 7f 3c
       -0.08414259 0.024242511 0.021314692 0.015568991
000110 d1 01 67 3d b0 0e e9 bc 09 3d 8c 3d 89 31 a6 bb
       0.056398217 -0.028449386 0.06847579 -0.005071823
000120 1e a7 7a be b5 c6 6f 3d 0e 48 b4 3d d3 4c 38 bb
       -0.24477813 0.05853911 0.08802806 -0.0028121963
000130 7e a0 c2 bc af e1 5e ba d8 dc 95 3d b0 83 42 3c
       -0.02375817 -0.00085022574 0.07317513 0.011872217
000140 7c e7 5c 3d 44 33 bb 3d 3c 1a 35 3c 00 00 00 00
       0.0539317 0.091406375 0.011053618 0.0
000150 73 aa 89 bc 04 d9 bd 3c 7e f1 6b 3d be 47 3b 3d
       -0.01680491 0.02317477 0.05760335 0.045722716
000160 2c 01 b7 3b ad e9 30 3d 48 14 00 be 5d 57 cd 3d
       0.0055848565 0.0431916 -0.12507737 0.10026429
000170 70 7c 52 bb 98 2c 3b 3d e3 a0 3e bd bd fd 80 3c
       -0.0032117628 0.045696825 -0.046540152 0.015745992
000180 65 05 8e bd f1 c1 1d bc 44 4a cd 3e 8e c5 34 3c
       -0.06934623 -0.009628759 0.40095723 0.011033429
000190 10 65 2f bb 3b aa 44 3d 14 10 d8 bb 8c 40 d2 bd
       -0.0026763119 0.048013907 -0.0065937135 -0.102662176
0001a0 bd 34 ae bd 1d a4 97 bd 27 90 10 be db ba 5d 3d
       -0.08506153 -0.07404349 -0.1411749 0.054133277
0001b0 90 c1 2d 34 fe df 9e 3d c2 2a 23 3c 2b d7 b2 3d
       1.6182298e-07 0.07757567 0.009958925 0.08732446
0001c0 8d 12 e7 bb de 80 d1 3c f4 0c fa bb ba 7c 16 bc
       -0.007051772 0.025574144 -0.0076309387 -0.009185011
0001d0 00 00 00 00 63 10 65 3d fe 22 ea bc 86 80 97 bd
       0.0 0.05592383 -0.028581139 -0.07397561
0001e0 40 ac 42 3c 16 70 b8 3d fa 1a fd 3d 47 6b 8f bd
       0.011881888 0.09005754 0.12358661 -0.070028834
0001f0 c7 ce b4 3b f6 20 59 b7 78 84 37 be 39 eb f1 bb
       0.005517814 -1.2941882e-05 -0.17921627 -0.007382777
000200 dc 13 26 bd 22 6a 66 3d da 65 d1 39 22 2e 80 bb
       -0.040546283 0.05625356 0.00039939472 -0.0039117495
000210 0e 32 b5 bd 67 51 9f 3e 48 7e 80 ba 55 ae 46 bd
       -0.08847438 0.31116793 -0.000980326 -0.0485061
000220 14 e9 c7 3c 96 f1 44 3d 33 10 31 3e 07 75 ca bd
       0.024403132 0.048081957 0.17291336 -0.098856024
000230 00 00 00 00 ee 41 1b 3e c2 5c eb 3c 00 00 00 00
       0.0 0.15161869 0.028730754 0.0
000240 02 b5 eb 3c bf 39 7a 3c b7 f6 48 3c 12 72 93 3d
       0.028772835 0.015272557 0.012265853 0.071994916
000250 3f ed b4 3b 1a 31 e6 3c 89 55 aa 3d 4b c5 05 bc
       0.005521446 0.028099585 0.08317096 -0.008164714
000260 d5 6a 18 3e 6c d4 55 3d 76 c1 15 3e ff 20 ae bd
       0.14884503 0.052204534 0.1462458 -0.08502387
000270 31 56 11 bc b7 5d 96 3d 00 00 00 00 2d 53 e0 bd
       -0.008870647 0.073420934 0.0 -0.109533645
000280 0d c3 31 3c 70 da 9f b8 52 b5 ac 3d 6f c3 49 bc
       0.010849726 -7.622398e-05 0.084330216 -0.012314661
000290 88 cb 53 3d 9e c6 83 3d bc 43 40 bd 5e 44 12 3a
       0.051707774 0.064343676 -0.046939597 0.00055796455
0002a0 ae d7 ca bc 5c a2 d2 bd 3d 87 9b 3d cf a6 9c bb
       -0.024761047 -0.10284874 0.07594154 -0.0047806273
0002b0 1b f3 af bd 49 12 15 3d 22 97 c3 bc e6 d4 41 3d
       -0.085912906 0.03639439 -0.023875777 0.047322176
0002c0 c5 df c9 3d 2c af c6 3d 9b 40 f8 bc 83 7f c9 3c
       0.09857134 0.0970138 -0.030304244 0.024596935
0002d0 30 86 a1 3d 8c 8e 17 be 68 e1 27 3d 24 58 ed 3d
       0.07886922 -0.14800471 0.04098645 0.11589077
0002e0 b5 f6 cb bc fb 9f cb 39 ce 63 b3 35 12 ce cd b9
       -0.024897913 0.00038838372 1.3365586e-06 -0.0003925418
0002f0 f9 52 20 bd 34 ce e5 3d 8c c9 71 3d b5 4f 8e 3d
       -0.03914163 0.11220971 0.0590301 0.06948797
000300 67 b2 61 3b 93 f3 43 3d be 12 20 3e 25 ef b7 3c
       0.0034438611 0.047839712 0.1563215 0.0224529
000310 97 40 94 ba 53 e1 32 be 75 2b 7a bc 8a d5 9b 3d
       -0.0011310753 -0.17468767 -0.01526915 0.07609089
000320 50 6a 8d bd 19 ce b7 bd 57 0d 1b bd 07 13 77 bd
       -0.06905043 -0.08974857 -0.03785452 -0.06032088
000330 e2 9f 08 3d 3c 41 c8 3c 00 00 00 00 d3 2e 8f 3b
       0.0333556 0.024445169 0.0 0.0043695956
000340 6b 35 64 3d 54 c6 f9 bc 8f 23 7d bd 3e 3e 00 3e
       0.055715006 -0.030490078 -0.06180149 0.12523744
000350 5b b0 18 bb 5f af 7d bd 26 b8 b9 3c 3d 08 10 3c
       -0.0023298475 -0.061934825 0.022670817 0.008791027
000360 b6 e1 1e 3c 9e ea 3b 3c 9d 5e e2 3d 33 a0 a2 3d
       0.009697368 0.011469511 0.11053202 0.07940712
000370 01 00 f6 3d 7f c5 24 bd ba af a5 bd 3b c3 60 3e
       0.120117195 -0.04022741 -0.08090158 0.21949475
000380 c7 38 80 3d 0c d0 65 3d 00 00 00 00 61 ce 0b 3e
       0.062608294 0.056106612 0.0 0.13652946
000390 c2 b1 97 3d 89 14 4a 3d 87 9e ac bd e6 29 97 bc
       0.074069515 0.04933599 -0.08428674 -0.018452596
0003a0 a7 f0 d7 3d 40 33 fc bb ce 82 79 bd 74 e9 ee bb
       0.10543948 -0.007696539 -0.06091576 -0.0072910134
0003b0 4f e0 dd bd a6 a7 e0 ba e5 02 88 bd 89 42 a5 bd
       -0.10833799 -0.0017139807 -0.06641177 -0.08069331
0003c0 0e a8 1f bd 00 57 6a bc a7 db 09 bc 54 ca 04 3e
       -0.03897863 -0.014302969 -0.008414186 0.12967807
0003d0 c7 2a 1f bd 8c 51 e8 3c 53 ab b3 3b 30 36 51 bc
       -0.038859155 0.028359197 0.00548307 -0.012769267
0003e0 16 9c 17 ba 91 0a 83 3d 23 e7 94 3d dc 79 1b 3d
       -0.00057834515 0.063985 0.07270648 0.03795801
0003f0 df ea 90 3d 7b 0c 34 be f6 75 27 3d 97 2e 38 bc
       0.07076048 -0.17582886 0.04088398 -0.011241577

sequential_6/dense_31/BiasAdd/ReadVariableOp f4 [256]
000000 00 00 00 00 d8 0f f0 3c 00 00 00 00 8e 9a 2e 3d
       0.0 0.02930443 0.0 0.042627864
000010 03 a3 78 3c 84 86 6e bd 4e 17 d0 3b 88 e1 0b bd
       0.015175584 -0.058233753 0.0063504344 -0.03415063
000020 48 1e 0a be f6 26 9a bc 39 27 4b 3e 93 c6 1a 3d
       -0.13488114 -0.018817406 0.19839181 0.03778703
000030 ef b1 74 bd 84 2d c7 bc 00 00 00 00 a3 bb 01 be
       -0.059740003 -0.024313696 0.0 -0.12669234
000040 38 33 bf bd 58 da e6 3c 7f 5a cc 3d 24 58 94 bc
       -0.09335941 0.028180286 0.09978198 -0.018108435
000050 2a bc 22 bc c3 43 e7 bc 8a 37 00 be 5e 09 0f be
       -0.009932557 -0.028230553 -0.12521186 -0.13968417
000060 33 57 cc 3b 14 0a 3a 3d 20 20 aa 3d 98 58 cd 3c
       0.006235981 0.045419767 0.083069086 0.025066659
000070 5b 0e 6d 3d ce 30 90 3c 06 6a e4 3d 7c 90 7d bc
       0.05787502 0.017601397 0.11153035 -0.015476342
000080 75 22 a2 3d 51 cb db bd 4d 8b f3 ba 00 43 92 3d
       0.079167284 -0.10732139 -0.0018580944 0.071416855
000090 eb b3 d3 3c 00 00 00 00 f6 56 e8 bd 7e 34 b5 3b
       0.025842628 0.0 -0.113447115 0.005529939
0000a0 52 6d a2 bb c5 dc da bd d3 b1 07 3d 8e a8 75 3c
       -0.0049568797 -0.1068664 0.03312857 0.0149938
0000b0 00 00 00 00 00 00 00 00 76 ea 7f bc 29 e4 2f 3e
       0.0 0.0 -0.015619865 0.1717688
0000c0 68 9d 81 3c d6 9d 63 3e 92 e1 b5 bd 00 00 00 00
       0.015822127 0.22228178 -0.08880915 0.0
0000d0 c8 bf 48 bc 36 ab 47 bd a6 24 0c 3d b2 75 95 bd
       -0.012252755 -0.048747264 0.03421464 -0.07297839
0000e0 4e 25 fd 3c 29 9e 88 bc 65 e3 cc bd 48 9a 1e bd
       0.030901577 -0.01667698 -0.100043096 -0.038721353
0000f0 9b 3e 3b b5 a6 73 58 3d 86 08 d9 3c ef 53 e7 bc
       -6.975403e-07 0.052844666 0.026493322 -0.028238265
000100 bd d2 97 3c 67 65 c7 bc fb a4 c0 bb 3c 70 43 3d
       0.018533105 -0.024340345 -0.005879042 0.047714457
000110 a8 66 b6 3d 39 93 9a b9 f1 c9 ac 3b 00 00 00 00
       0.08906299 -0.00029482858 0.0052730967 0.0
000120 00 00 00 00 f6 63 2b be 00 00 00 00 0e e0 c2 bc
       0.0 -0.16737351 0.0 -0.023788478
000130 ef 2a 2a be 78 67 7a 3a 0d d3 35 be 47 07 a6 bd
       -0.1661794 0.0009552161 -0.1775629 -0.08106857
000140 ff 83 48 bc 71 e3 3d 3e f5 48 92 3d 55 d4 22 3d
       -0.012238502 0.18543793 0.07142822 0.039753277
000150 61 40 c0 bd 09 77 9e 3d 91 c9 95 bd 1d 22 4f bb
       -0.09387279 0.07737548 -0.07313836 -0.0031606026
000160 26 61 c8 3b 13 a3 db 3d 42 e6 bc 3b 29 b9 c3 bd
       0.0061150966 0.10724463 0.0057647536 -0.09556801
000170 95 2f ad bd e3 e9 b0 3d c6 5d 13 3d 00 00 00 00
       -0.08456341 0.0863836 0.0359781 0.0
000180 01 40 47 bc 60 d8 56 bd 4b cf be bd aa 6c c5 3d
       -0.012161256 -0.052452445 -0.09316882 0.09639867
000190 82 08 05 3e 41 e6 4c bd 5d 04 94 3d 26 47 a6 bb
       0.12991527 -0.050024275 0.07227395 -0.0050743995
0001a0 00 00 00 00 fb 94 3e bd 00 00 00 00 0a 3c 32 bd
       0.0 -0.046528798 0.0 -0.04351429
0001b0 9e 09 9b bd ae d7 a3 bc 8c 33 db bc 79 2b 21 bd
       -0.07570194 -0.020000305 -0.026757978 -0.0393481
0001c0 87 70 06 3d 67 8b 00 3d 66 ce d9 b8 0c 8d af 3c
       0.03282216 0.031382944 -0.00010385811 0.021429561
0001d0 46 09 ba ba 98 75 c0 3c 42 8a 3f bd a1 90 39 3e
       -0.0014193438 0.023493573 -0.046762712 0.18121578
0001e0 41 13 c1 3d 5f 3e 05 be 45 7c 18 3d d0 8c 2e 3d
       0.094275005 -0.13012074 0.037227888 0.042614758
0001f0 5a 94 a5 b9 bf 5c bd bd bc 04 e5 ba 48 22 a7 39
       -0.00031581783 -0.092462055 -0.0017472724 0.00031878264
000200 50 99 2d 3d 02 52 a8 bc 76 86 45 3e c6 6b cb 3d
       0.04238254 -0.020546917 0.19289574 0.099326655
000210 00 00 00 00 20 84 0b b6 88 b0 e9 bd 95 26 fc 3c
       0.0 -2.078952e-06 -0.11410624 0.030780116
000220 01 b3 00 bd 3b d9 19 3d 61 6c d7 bd 1f 24 6e bd
       -0.03142071 0.037560683 -0.105187185 -0.058139917
000230 c6 4c c7 3d e5 dc f9 3c ff 83 1a 3d b6 89 8a 3d
       0.0973144 0.030500839 0.037723538 0.067645475
000240 e0 e4 35 3e cf 0d 05 3e 41 54 49 ba da 6a 29 3d
       0.1776309 0.12993549 -0.00076800963 0.041361667
000250 9b c2 f6 bd 93 4d fc bd 7d a4 0e be 00 00 00 00
       -0.12048837 -0.123194836 -0.13929935 0.0
000260 09 84 5f bb 6f 32 a7 bc b1 7d c0 3d ca 92 0e 3d
       -0.0034105799 -0.02040979 0.09398974 0.034807958
000270 98 d1 11 be d1 49 2b 3e 18 a0 20 3c 87 a8 02 b8
       -0.1424011 0.16727377 0.009803794 -3.115137e-05
000280 89 86 9a b7 00 00 00 00 ce ec cb bc c1 29 83 bd
       -1.8420878e-05 0.0 -0.02489319 -0.06404448
000290 59 d3 34 bd 49 65 e3 b9 36 20 93 bd 19 e7 f5 bd
       -0.04414687 -0.00043372277 -0.07183878 -0.12006969
0002a0 bb 8e 77 bd f0 72 1d 3c 52 f8 b7 3d 6c 8c 92 bd
       -0.060438853 0.009609923 0.0898291 -0.071556896
0002b0 87 d8 39 3e 3b 11 eb b9 b8 0a a5 3d 00 00 00 00
       0.18149005 -0.0004483553 0.08058685 0.0
0002c0 73 74 db bc 5d 75 1a 3d cd f8 96 bd 56 4c a7 3c
       -0.026788926 0.037709583 -0.07371674 0.020422142
0002d0 3b 85 30 bc 66 b4 4a 3b 7f a9 88 bc bc cb e0 3d
       -0.010773952 0.003093028 -0.016682385 0.10976359
0002e0 85 23 b9 bc ee 9a f4 bb 7d 4c 10 be 03 29 31 bd
       -0.022599945 -0.007464758 -0.14091678 -0.043252002
0002f0 55 c5 93 b8 20 22 b2 3d 06 bf 0b 3d 6e 4d 2f 3e
       -7.046262e-05 0.08697915 0.03411772 0.17119381
000300 7f d9 3b bc 00 00 00 00 16 12 b8 3c ac c9 04 bd
       -0.011465429 0.0 0.022469562 -0.03241889
000310 fa e1 49 bb a4 04 8f bd 00 00 00 00 41 ae 59 3c
       -0.0030804859 -0.06983307 0.0 0.013286174
000320 72 34 fe b9 c5 8e 1d bd a4 48 16 3d 00 00 00 00
       -0.0004848573 -0.038466234 0.03669037 0.0
000330 82 b7 8e bd 1a d6 08 bc 16 4e 7c 3c 84 a4 66 3c
       -0.06968595 -0.008351827 0.0153994765 0.0140773095
000340 4e 86 c0 bb d2 27 cc bb b5 51 f5 bc 17 bc 9c 3d
       -0.0058753854 -0.006230333 -0.029946188 0.07653063
000350 a8 b6 cd 3c f2 78 6b bc 00 00 00 00 b4 26 87 3d
       0.025111511 -0.014372097 0.0 0.06599179
000360 d6 80 9c bd 61 55 0c be 55 a5 ce 3c ed a7 e6 3c
       -0.07641761 -0.13704444 0.02522532 0.028156245
000370 6f f6 03 bd 83 a1 87 bd 00 00 00 00 00 00 00 00
       -0.03221744 -0.06622603 0.0 0.0
000380 00 00 00 00 3f 93 55 3b d7 e4 08 bd 53 ed c6 bb
       0.0 0.0032588986 -0.033421364 -0.0060707717
000390 9b 70 ae 3d 30 e3 08 3e 49 46 54 3d 60 68 70 3e
       0.085175715 0.13367915 0.05182484 0.23477316
0003a0 47 06 2a bd d7 f1 13 b9 4c b1 8f bd ca 5c b8 bd
       -0.041509893 -0.00014109105 -0.070162386 -0.09002073
0003b0 9e 94 9e 3c ae 92 0a bd 1d b1 8b 3d 80 8b 33 bb
       0.019357976 -0.03383129 0.06820891 -0.002739638
0003c0 78 10 86 3d b9 18 96 bd 38 a7 85 3d 5d 7e 82 be
       0.0654611 -0.07328934 0.06526035 -0.25487033
0003d0 32 30 c6 bb 80 80 ae 3d ff da a8 bd 99 d0 aa 39
       -0.006048226 0.08520603 -0.08244895 0.00032580344
0003e0 24 f7 e9 3a cd 1a b2 b9 ba 14 86 3d 00 00 00 00
       0.0017850143 -0.00033970774 0.06546922 0.0
0003f0 5f 57 02 be 31 d9 6e 3c 3f b4 02 bd 08 73 4e 3d
       -0.12728642 0.01457815 -0.031910177 0.05040267

sequential_6/dense_30/BiasAdd/ReadVariableOp f4 [3]
000000 ce f2 00 40 e7 82 87 3f 24 7a 33 3f
       2.0148196 1.0586823 0.70108247

sequential_6/dense_30/MatMul f4 [3, 3]
000000 8b 24 df 3d 3a 26 2f bf 26 6f 68 3d 71 1b 3c be
       0.10895642 -0.68417704 0.056746624 -0.18369843
000010 d4 ab 4a bf e0 5c 80 3f 20 20 16 3f 98 bd 9f bd
       -0.7916844 1.0028343 0.5864277 -0.07799834
000020 a8 38 31 3f
       0.69227076

sequential_6/dense_31/MatMul f4 [256, 3]
000000 cc 96 f7 bc be cf 38 bd 50 87 04 bc a0 0b c7 bd
       -0.030223273 -0.045119993 -0.008088902 -0.09719014
000010 6f fb 83 bb 2f 80 42 bb 5e df 41 bd a4 2a ff bc
       -0.004027776 -0.0029678454 -0.04733216 -0.031148262
000020 20 82 55 bd 75 b7 f9 bc f9 18 1a 3e c4 8b dc 3d
       -0.05212605 -0.030482987 0.15048589 0.10768846
000030 5e b1 2f be 50 a6 0c be 51 71 e1 3d 9b ca 1b 3e
       -0.17157504 -0.13735318 0.110079415 0.15214007
000040 f8 07 8d bc ee 05 86 3d 0b db 5f be 04 4a 22 3e
       -0.017215714 0.065441 -0.21860902 0.15848547
000050 8a 0c fc 3c 9c f9 8a be 47 59 37 3e 78 b5 72 3e
       0.030767698 -0.27143562 0.1790515 0.23702037
000060 ab de cf 3c 6f 6c b3 bc 1b 88 b8 3d 69 c0 6a 3e
       0.025374731 -0.021902291 0.09010335 0.22924961
000070 95 25 a3 bd a6 0a 35 bd aa 1e 32 3e ca 58 a7 bd
       -0.079661526 -0.04419961 0.1739451 -0.08171232
000080 ff 83 37 bb 86 ab e0 3d 3f 9a 90 3d fb 2f e2 bd
       -0.002800226 0.109702155 0.0706067 -0.11044308
000090 8a 30 e0 3d 0c 27 60 3b 9c ba a9 3d 06 f1 3b be
       0.10946758 0.0034202961 0.08287546 -0.18353662
0000a0 a8 87 f7 bd b0 39 64 3e f5 63 99 bd 04 cd 02 be
       -0.12086421 0.22287631 -0.074897684 -0.1277352
0000b0 8b b2 11 be 17 57 de bc ac 78 02 3d 13 ce 59 3d
       -0.14228265 -0.027141137 0.031853363 0.053175043
0000c0 dc 1a dd bd 1e 6e b5 3d d5 d5 0b 3e 32 04 0c 3e
       -0.10796139 0.08858894 0.13655789 0.13673475
0000d0 9c 21 a2 3d 3d a9 9a bc 8b f0 f2 3d 31 43 70 be
       0.07916567 -0.018879527 0.11862286 -0.23463131
0000e0 b2 64 07 3d 24 d5 c6 bd 2f 13 1c 3e 84 97 b8 bc
       0.033055015 -0.09708622 0.15241693 -0.022533186
0000f0 02 75 3c 3e 51 2f 87 bd 95 43 80 3d 38 bb 02 be
       0.1840401 -0.06600822 0.0626289 -0.12766731
000100 53 9d 28 3e 1c 39 d5 bb 97 75 7e be 74 68 65 3e
       0.16466264 -0.006507052 -0.24849544 0.22403127
000110 4c 66 0c 3e a6 7f 2b bd 54 87 f0 3b f9 0c 93 3d
       0.13710898 -0.041869782 0.007340351 0.07180209
000120 6f c6 1a be ef da ae bd ec 55 35 3e b1 0a 2b 3c
       -0.15114759 -0.08537852 0.17708558 0.010439561
000130 35 e9 9b 3d da 8d 76 3c 4a 4f bd bd e8 df 3b 3e
       0.0761284 0.0150484685 -0.09243639 0.18347132
000140 6b 6c ea 3d cc 76 5d 3d 8a db b8 3d f1 8c 0e be
       0.1144646 0.05406837 0.09026249 -0.13920952
000150 cf 6b 78 3e 22 d7 ea bd 11 8e 54 bd 66 66 10 3e
       0.24259876 -0.114668146 -0.051893298 0.14101562
000160 90 96 1b be fe 4e 82 bc 9a 0f 8c 3d 74 1b 67 3d
       -0.15194154 -0.015906807 0.06838913 0.056422666
000170 51 1e d4 bd 7a 20 89 bd 3f ba f4 3c 88 55 28 3e
       -0.10357345 -0.066956475 0.029873965 0.16438878
000180 95 a0 58 3e 81 49 99 bc b1 c8 8f 3d f6 c2 6b 3e
       0.21155007 -0.018711807 0.07020701 0.2302359
000190 73 c4 3c 3e 05 92 f0 3d b1 08 a4 3b d8 f8 98 bc
       0.18434314 0.11746601 0.005005919 -0.018673345
0001a0 53 4e f8 bc 00 f6 bc 3d fa bc 33 bd 14 f7 ab bc
       -0.030310785 0.09226608 -0.043881394 -0.02099184
0001b0 d1 8b 06 3d cc a5 1d 3d 62 9c 10 be 3a 14 22 bd
       0.032848183 0.038488194 -0.14122155 -0.03957007
0001c0 00 0e 99 bc a1 aa 10 be 14 5a 85 3e e9 63 8f bd
       -0.018683434 -0.1412759 0.26045287 -0.07001478
0001d0 6c 96 a5 3d 8b 80 20 3e 30 e6 68 3d 0f 22 ea bd
       0.08085331 0.15674035 0.05686015 -0.114322774
0001e0 eb 99 2a 3c 85 02 fb 3c 2b f6 6a bd be a0 8a 3d
       0.0104126735 0.03064085 -0.05736367 0.067689404
0001f0 76 0f f8 bb 83 46 7e 3d 5f bc d3 3d 97 ed cf bd
       -0.0075702025 0.062078964 0.10338663 -0.101527385
000200 fc 2d 12 be 34 e2 d7 3c 82 f9 f5 bd 78 fb 14 be
       -0.14275354 0.02635298 -0.120104805 -0.14549053
000210 98 87 a3 bc a8 be 5e bd 54 e5 f6 bc 03 f9 11 be
       -0.019962117 -0.054381043 -0.030138649 -0.14255147
000220 07 09 0c be f4 c5 a9 bd aa fb 46 3d c1 47 cc 3d
       -0.13675319 -0.0828971 0.04857985 0.099746235
000230 55 bf 06 be ec 1a e9 3c 42 b6 79 bc d5 56 63 3d
       -0.13158925 0.02845522 -0.015241208 0.05550273
000240 84 98 71 bd 58 64 41 3e 29 d9 cf bd c1 fe 8f 3e
       -0.05898334 0.18885934 -0.10148842 0.2812405
000250 78 95 42 be f6 da 55 bd 65 37 1b 3b 54 8f cb bd
       -0.1900233 -0.05221077 0.002368414 -0.09939447
000260 42 55 31 3e c0 91 26 bc 69 4c 0f be 80 8b bb bb
       0.1731768 -0.010166585 -0.13993992 -0.005723417
000270 01 9f 59 3d fd 7a 24 3d e6 62 16 3e e7 04 c6 3d
       0.053130154 0.040156353 0.14686164 0.09668904
000280 cd 6b 1e be 02 fd 29 3e ac 57 0c be 90 4f 8b bd
       -0.1547081 0.16600421 -0.13705319 -0.06802285
000290 c2 2f 20 3e 45 ec 98 3d 01 d9 01 be db 87 c2 3d
       0.15643218 0.0746694 -0.12680437 0.094985686
0002a0 e7 2c 61 3e e6 c3 36 3e 49 11 07 be 0a 6b 79 3d
       0.21989785 0.17848167 -0.13190188 0.060893096
0002b0 48 09 b6 3d d0 33 ca bd e4 a3 77 3e 4c cd 75 be
       0.08888489 -0.09873164 0.24183613 -0.24004096
0002c0 fe ce d6 3d ee ac 8e bd f3 a4 8a bc 4f 0e 29 3e
       0.104886994 -0.069665775 -0.016924357 0.16509365
0002d0 ab e5 bc 3d c6 8a 29 ba 97 da 18 be df 04 df bd
       0.09223493 -0.0006467517 -0.14927135 -0.10889601
0002e0 17 21 0b 3e 31 72 1c 3d 7e 4f 6c bd f5 7d 47 3c
       0.13586842 0.03819484 -0.057692997 0.012176027
0002f0 72 7d 0c be d8 04 f8 bd 40 44 8a bd 36 6b 1b 3c
       -0.13719729 -0.12110299 -0.06751299 0.00948601
000300 5a 5b 07 be 53 03 02 be 29 d2 4d 3e 7a d9 03 be
       -0.13218442 -0.1269658 0.20099701 -0.1287593
000310 6c a2 1c 3e 4a fa 03 3e fc e8 ba 3d 12 81 55 bd
       0.15296334 0.12888446 0.091264695 -0.052125044
000320 ad 50 e8 bd ad ba 13 3e 0c c9 b8 3d 29 55 99 3d
       -0.11343513 0.1442668 0.09022722 0.07486946
000330 28 d2 73 3e 60 04 4a be ef 52 3b bd b5 f7 0e 3e
       0.23810637 -0.19728231 -0.04573339 0.1396168
000340 45 c4 42 bd e5 ab 21 be e3 6d 2e bc 3c ef e8 bd
       -0.04755046 -0.15788229 -0.010646316 -0.11373755
000350 d0 60 14 3e ec bd 7e bd 60 5e 77 bc 2d 7b a8 bd
       0.14490056 -0.062192842 -0.015098184 -0.08226619
000360 f0 d0 57 bc d8 75 8c bd 48 51 98 bc fc 1d d5 bd
       -0.013172373 -0.068584144 -0.018593445 -0.1040611
000370 e4 44 fb 3d c7 5a 61 3d 90 0d 42 bd 2a f7 03 be
       0.12268999 0.055018213 -0.047376215 -0.12887254
000380 64 37 82 bd 35 ae c4 3d 9d cb f2 3b 84 be 7c bd
       -0.06358221 0.0960354 0.0074095265 -0.061705127
000390 6a 5e 49 bd 0c d1 c1 3c 1c 9d b2 3d b3 ec 95 bc
       -0.049162306 0.023659252 0.087213725 -0.018301344
0003a0 0c 83 0c 3e fc 57 c3 bd 45 1c 07 be 15 60 67 3d
       0.13721865 -0.09538266 -0.13194378 0.056488115
0003b0 89 4c f5 3d 28 3c 6b 3c 9d 08 41 bd 1d 97 dc 3d
       0.119774885 0.014357604 -0.047127355 0.1077101
0003c0 8f 47 7d bd 95 a8 ce 3d 4c cf 9e bd a4 01 cb bd
       -0.06183582 0.10090748 -0.077543825 -0.09912422
0003d0 d2 bf 51 be 51 15 9b 3d 10 f3 23 3e 89 4e 6a bd
       -0.2048333 0.07572425 0.1601069 -0.057203803
0003e0 87 50 0d bd c2 5a 5d 3e da 34 23 3e c0 b9 02 be
       -0.034500625 0.21616653 0.1593813 -0.1276617
0003f0 93 2c f2 3c bb 89 db bd e7 45 ef 3d 4d 5c 4f 3d
       0.02956227 -0.107196294 0.11683255 0.050625134

sequential_6/dense_32/MatMul f4 [256, 256]
000000 78 bf 83 3c 2e cd 81 bb 20 9e 20 3c a4 4e 3f 3d
       0.01608251 -0.003961227 0.009803325 0.046705857
000010 fa 82 35 3d 1a 26 54 bd dc 57 10 bd d0 8f 6e bd
       0.044314362 -0.05179415 -0.03524004 -0.05824262
000020 5c 9a b6 bb 6e ec 2d 3d 5b 7f 24 bc c1 98 d6 bd
       -0.0055726003 0.042461805 -0.01004013 -0.10478354
000030 69 30 cf 3d 62 4d 57 3b 76 39 7a bd d8 c9 14 3d
       0.101166554 0.003285252 -0.061089955 0.036325306
000040 58 88 42 bd 2c d2 ca 3d 86 ea 2d 3a 96 2a 69 3d
       -0.04749331 0.09903368 0.0006634373 0.05692538
000050 47 5b 81 3d d0 25 11 3d f9 d7 9e bd 74 cf 7e 3c
       0.06316238 0.03543645 -0.07756037 0.01555239
000060 b7 e3 9f bd ca be ba 3c 2b d9 b7 3d 9e 40 14 3d
       -0.07807105 0.022796053 0.089769684 0.036194436
000070 a4 0b 88 3d d1 4f 09 3d 99 1e a2 bd bb d1 a3 3d
       0.06642845 0.033523384 -0.07915992 0.07998987
000080 d8 7d cd bc b2 2a 34 3d 4f b2 04 bd 03 2e ad bd
       -0.025084421 0.04398603 -0.03239661 -0.08456042
000090 2c 8d 3f 3d fe 5b 28 3d 75 44 e9 3d 65 e1 a6 3d
       0.04676549 0.041103356 0.1139001 0.08148459
0000a0 1d 6a 4e bc 87 f6 ca 3d ef a9 b9 bd 05 c2 b5 3d
       -0.012598542 0.099103026 -0.090656154 0.08874897
0000b0 76 fb c3 bd 1a 15 57 3d e4 83 2f 3c e3 57 cb bd
       -0.09569447 0.05251036 0.0107125975 -0.099288724
0000c0 37 ab 39 bd f0 ea b2 3d 66 30 3e bd 4b 60 8c 3d
       -0.0453293 0.08736217 -0.046432875 0.06854304
0000d0 c1 32 70 bd 6f ae 4c 3d ca b5 ab 3c 6e d9 7a 3d
       -0.058642153 0.04997104 0.020960707 0.061242513
0000e0 de af 5f bd d6 ac 66 3d cb 61 7d bd 9f 04 1c 3d
       -0.05461108 0.056317173 -0.06186084 0.038090345
0000f0 48 60 4f 3d 99 45 46 bd 59 61 e9 ba 27 d7 77 3d
       0.05062893 -0.048406217 -0.0017805501 0.06050792
000100 58 fa 8c 3c c7 c5 d9 3d cd db 9f 3d 07 bb c1 bd
       0.017209217 0.10633426 0.078055955 -0.09459501
000110 f0 e8 2b bd 45 7e 85 3d b8 05 87 3d f4 bb d4 bc
       -0.041970193 0.065182246 0.06592888 -0.02596853
000120 b1 f7 ce bd 66 d6 8c 3c 4a a4 52 3d 39 28 6f bd
       -0.10105837 0.017192077 0.05142621 -0.05838797
000130 f0 b2 a2 3d 4c 73 bd bd 93 cd 4c 3d ba 62 89 bd
       0.07944286 -0.09250507 0.05000074 -0.06708284
000140 d2 a5 95 bd 27 68 7c 3d 08 23 34 3c 27 73 c1 bd
       -0.07307018 0.061622765 0.01099468 -0.09445792
000150 78 d0 e8 bc 01 55 c2 bc 00 22 cd bd 0e 65 d9 3d
       -0.028419718 -0.023722174 -0.100162506 0.10614978
000160 fc 18 97 3d 2d c9 bf bc 4a 8a a6 3c 0b bd 6f 3d
       0.07377812 -0.023411358 0.020329613 0.058529895
000170 a0 32 dd 3d 71 c5 a7 bd 19 b7 af 3c b0 b3 8a bc
       0.108006716 -0.08191956 0.021449612 -0.016931385
000180 1d 2d 99 bc 28 b1 2d 3d b4 c1 2b 3c a9 2d 01 3d
       -0.01869827 0.042405277 0.010483194 0.031537686
000190 1d 5f a8 bc a3 3c 0a 3b 1d 39 d7 3b d8 2b d6 bc
       -0.020553166 0.0021093271 0.0065680877 -0.026143953
0001a0 ce b9 28 bd b8 14 2e 3a fb 00 a5 3d 87 46 97 3d
       -0.041192822 0.00066406606 0.08056828 0.07386499
0001b0 ae d7 1a 3d 16 11 62 3d 9e 5d ee 3c 28 66 88 bd
       0.037803344 0.055192076 0.029097375 -0.0666011
0001c0 a9 92 bf bd 10 0d b4 bd 15 a8 8b bd f2 d5 5a 3c
       -0.09354145 -0.08791554 -0.068191685 0.013356673
0001d0 ce 2d 69 bd cc 19 9b bc 75 68 76 3d 9c e5 76 3d
       -0.05692845 -0.0189332 0.06015821 0.060277566
0001e0 53 83 81 bd 52 c9 61 3d fa 7b 96 bc 7c 41 99 3d
       -0.06323876 0.055123635 -0.018369664 0.07483193
0001f0 e3 46 d4 bd 28 fa b1 bd b4 55 d8 bd 6a dc ab 3d
       -0.10365083 -0.08690292 -0.105632216 0.0839165
000200 08 bc 2f bd 85 5e d6 bc dd af c7 3c 81 23 d6 bd
       -0.04290393 -0.026168117 0.02437585 -0.104559906
000210 00 d3 d2 39 55 24 c5 3d 76 1d c4 ba 0b f9 15 3d
       0.00040211529 0.096260704 -0.0014962393 0.03661446
000220 88 ea 47 bd 48 d5 2c 3d 8b 05 36 3c 4a a2 b8 3d
       -0.04880765 0.04219559 0.01110972 0.09015329
000230 ae ad 07 3d 32 ee 67 3d e0 75 30 bd c3 8e 2c bd
       0.03312462 0.056623645 -0.043081164 -0.042128336
000240 43 bc 80 3b c4 5d a2 bd 55 46 d2 3d 25 a8 80 3d
       0.0039286925 -0.079280406 0.10267321 0.06282071
000250 95 1e 17 3c a1 f5 40 3d 44 59 e5 3d 2e 4e 1a bd
       0.0092236 0.04710925 0.11198667 -0.037672214
000260 4e 9a 3a bd 04 17 0e 3d 77 9e 64 3c 09 31 8e 3d
       -0.045557313 0.03468992 0.013953797 0.069429465
000270 a6 b8 b3 3d 08 ca aa bd db 6f 92 3d 48 71 bb bd
       0.08775453 -0.08339316 0.07150241 -0.09152466
000280 3d be 75 3d 77 24 81 bd 48 59 02 bd 68 47 d5 3d
       0.05999588 -0.06305783 -0.031823426 0.1041401
000290 07 ac a7 bd c5 6c c6 bd 0f f0 2e 3d 83 30 1b ba
       -0.081871085 -0.09688715 0.042709406 -0.00059200096
0002a0 1d d1 c2 3d 68 b8 92 bd 06 20 25 3d d9 c9 e1 3d
       0.095125414 -0.07164079 0.040313743 0.110248275
0002b0 29 0f 14 bd 65 74 bd 3d d3 af ec 3d 74 05 9b bd
       -0.03614727 0.09250716 0.11556973 -0.075693995
0002c0 cc 2e a6 bd cb 86 5e bc 83 18 26 3c 45 d7 55 3d
       -0.081143945 -0.013581942 0.01013768 0.05220725
0002d0 ce 07 ce 3c 91 65 7e bd 2c b7 b2 bd db 3d c1 3d
       0.025150206 -0.06210858 -0.087263435 0.09435626
0002e0 c7 a2 b3 3d 18 f8 9c bd f1 3a a3 3d 96 4c 47 bd
       0.08771282 -0.07664508 0.079702266 -0.048657022
0002f0 6c f6 a3 3d af 2a 91 3d 81 f0 28 3d 50 92 7c bd
       0.080059856 0.070882194 0.041244987 -0.061662972
000300 8a f4 01 bd 4c 80 7c bd 51 68 5a bd 81 50 18 3d
       -0.03172735 -0.06164579 -0.05332214 0.03718615
000310 b4 08 b9 3d af f3 b4 3c 64 37 91 bc ac 32 4b bc
       0.09034863 0.022088854 -0.017726608 -0.012402218
000320 98 aa f4 3b ec 70 dc 3d c2 ce da bc 48 77 55 3c
       0.0074666254 0.10763726 -0.026709918 0.013028927
000330 07 87 74 3d 29 77 b4 3c 21 9b 8f bc f1 58 d1 3d
       0.059699085 0.022029476 -0.017530026 0.10222042
000340 aa f8 d8 bd 24 ac 81 3d d9 44 83 bd 35 9d 5d bd
       -0.10594304 0.06331661 -0.06409616 -0.054105002
000350 89 4c 3f bd 41 9c b9 3c 65 3f 9e bd 24 a6 d1 bd
       -0.04670385 0.022657515 -0.07726935 -0.10236767
000360 4c f3 39 bd 4d 80 0c bd fb 90 9b 3d d8 a0 05 bc
       -0.04539804 -0.034302045 0.07596012 -0.008156024
000370 85 8c 68 3c c7 2b ad bd b1 6c c1 bd 18 80 ee bc
       0.014193659 -0.084556155 -0.09444559 -0.029113814
000380 c7 1f d8 3d 08 f5 87 3c 4a 9c d0 3d c0 a6 a6 3d
       0.10552936 0.016596332 0.1018606 0.08137274
000390 5a b2 8e 3d 30 08 b6 bd 6f 77 e4 3d ae 95 d8 3b
       0.069676116 -0.088882804 0.11155593 0.00660964
0003a0 7a ab c5 3d 22 02 44 3d ce 80 ad bc 7b 45 ff 3c
       0.09651847 0.047853597 -0.021179583 0.03116106
0003b0 ef 60 6b bd 89 22 b8 bd cf 11 43 bd cd c4 9e bd
       -0.05746549 -0.08990962 -0.047624405 -0.077523805
0003c0 e1 14 52 3d 20 fd b4 3d bc ce 37 bd 6a dc be bd
       0.051289443 0.08837342 -0.04487489 -0.093193844
0003d0 de 0c 90 3c b3 d6 8f bc da e6 45 3d 3c 17 25 3d
       0.01758426 -0.017558431 0.04831586 0.04030536
0003e0 79 53 c5 bc ed 1e 9e 3d 49 fa 81 b9 b0 85 16 bc
       -0.024087654 0.077207424 -0.00024791274 -0.009187147
0003f0 7e 88 51 bd 8a 49 87 3d e4 de 77 3d 1e 01 12 bd
       -0.05115556 0.06605823 0.0605153 -0.035645597

sequential_6/dense_33/MatMul f4 [128, 256]
000000 78 be c1 bd 89 e2 ea bd 8d b0 7c bd c8 9f a6 3d
       -0.09460157 -0.114689894 -0.06169181 0.081359446
000010 47 70 43 bc 53 14 b2 bd b4 90 88 bd 5e 17 cf bd
       -0.0119286245 -0.08695283 -0.06668225 -0.10111879
000020 00 4a e3 bd b8 0c cb 3b 87 96 d3 3d 5f 39 c0 bd
       -0.11098099 0.0061965846 0.10331445 -0.09385943
000030 dc 51 f8 3d fc b9 97 bb bd 8b e4 3d c9 b5 f3 bb
       0.121249884 -0.0046303254 0.111594655 -0.007437442
000040 43 8f fa bd ad 9d 17 bd 30 c1 a7 bc 7d 5d 17 bd
       -0.12234356 -0.037015606 -0.020477861 -0.03695439
000050 7a d5 a4 bd 90 20 6d 3d 4f 6b 49 bd 04 d5 c1 bd
       -0.0804853 0.057892382 -0.049174603 -0.09464458
000060 eb a8 54 bd 59 cd b5 bd 82 e1 c4 3c 89 77 c8 3d
       -0.051918905 -0.088770576 0.024033312 0.097884245
000070 dd 8c 7b bd 3c d2 aa 3a 5f a4 29 bc 2c c1 f8 3d
       -0.061413635 0.0013032625 -0.0103541305 0.121462196
000080 b7 aa be 3b 9c 84 ca 3d 5d b4 42 bd 91 d7 c3 3d
       0.0058186906 0.098885745 -0.04753529 0.095626004
000090 71 80 84 bd 26 76 34 bd 4e 04 c3 3c 21 c3 fd bd
       -0.06469811 -0.044057988 0.023805764 -0.123907335
0000a0 e6 e3 97 bc 7f 73 dc bd 6a 52 e9 bd 93 a9 a7 bd
       -0.018541288 -0.10764217 -0.11392672 -0.081866406
0000b0 bc c7 26 bd 67 99 69 3d d3 28 8b 3d 79 c9 f0 3d
       -0.040717825 0.05703106 0.06794896 0.11757178
0000c0 58 69 b0 3d ff ed 0d 3d aa fd e4 bd 64 30 6b bd
       0.08613843 0.0346508 -0.11181195 -0.057419196
0000d0 30 35 f2 bc 21 99 d2 bd 20 82 c1 bb 4f 18 05 bc
       -0.029566377 -0.10283113 -0.0059054047 -0.008123471
0000e0 8e e2 85 3d 60 fb 37 bd 68 cf 97 3c 42 3c 92 bd
       0.065373525 -0.044917464 0.018531516 -0.071403995
0000f0 35 19 e1 3c 85 20 b7 3d 8b cb 73 bd d0 0a 40 3d
       0.02747784 0.089417495 -0.059520286 0.04688531
000100 6a 3f 10 be 93 9e 9b bd 91 5a 96 bd cf 19 b8 3d
       -0.1408669 -0.07598605 -0.07341493 0.089892976
000110 4c 95 bd 3c fb 49 c9 bb db 08 ee 3d cc c4 95 3d
       0.02314248 -0.0061428524 0.11622783 0.07312927
000120 05 83 14 be b0 8f 45 3c a0 17 2e bd 88 02 c9 bd
       -0.14503105 0.012058184 -0.042503 -0.09814936
000130 58 a8 9a 3c ab 8b a0 3d e3 56 bf bd fa a8 82 3d
       0.0188791 0.078391396 -0.09342744 0.06379886
000140 4b ea f3 3d 70 b3 03 3d 48 9c 0c 3e 80 62 87 bc
       0.11909922 0.032153547 0.13731492 -0.01652646
000150 6a 5f f4 3d a6 ea 3a bc 4f 8b d1 bd ae 93 3c 3c
       0.11932261 -0.011408484 -0.10231649 0.011509819
000160 04 88 df 3d 1b 3e be bd 50 16 84 bd 37 a3 2b 3d
       0.10914615 -0.092891894 -0.06449568 0.0419037
000170 8e 13 f5 bc 89 c6 0e 3e bd 07 f6 bb a4 5b ac 3d
       -0.029916551 0.13942923 -0.0075082467 0.084159166
000180 33 20 ed bd f1 39 65 bd 5a 92 26 bb 50 17 db 3d
       -0.11578407 -0.05596346 -0.0025416822 0.10697806
000190 28 d3 c6 3d 85 ea 06 3d d6 fd b5 3d ef 21 fb bd
       0.097082436 0.0329385 0.08886306 -0.12262332
0001a0 d7 2d 79 bd a8 cc 4b bb bf e7 e5 bc a0 be f6 3c
       -0.060834732 -0.0031097326 -0.028064607 0.030120194
0001b0 b0 f0 86 bc c8 ba 7c bd af bf 3e 3c e8 b6 50 3d
       -0.01647219 -0.061701566 0.011642381 0.050955683
0001c0 8e 93 67 bd 6a e7 a9 3d ad 03 bf 3c 21 48 c9 3c
       -0.056537203 0.08296092 0.023317182 0.024570527
0001d0 98 d0 00 bd 55 f7 16 3e 64 84 25 bd ac 10 af 3d
       -0.03144893 0.14742787 -0.04040946 0.08548102
0001e0 6f cf 9a 3d 3e a6 12 3d 64 af a8 bd 04 48 f7 3d
       0.07559096 0.035803072 -0.08236578 0.12074283
0001f0 35 6d e9 3d 48 ee ef bd 6f 73 ec bc a7 58 82 bc
       0.11397783 -0.117153704 -0.028863637 -0.015911413
000200 d2 6a 36 bd 74 e8 9a 3d e5 e3 c2 3d 9f c6 30 bd
       -0.044535466 0.07563868 0.09516124 -0.04315817
000210 25 77 ff bd bf 50 25 bd 75 d0 a9 3d a9 63 b5 bd
       -0.12473897 -0.04036021 0.08291713 -0.08856899
000220 8d 60 e1 bd b3 72 c6 bc 2c 5c 0f 3e 4e ac e2 bd
       -0.11004744 -0.024224615 0.14000005 -0.11068021
000230 30 c4 ea 3d 34 d3 89 bd a2 1c 0a ba 44 80 ed bd
       0.11463201 -0.06729737 -0.0005268549 -0.1159673
000240 66 9f bb bd 22 6f 93 bd 24 bd 96 3c ca d3 e2 3d
       -0.09161262 -0.07198931 0.018400736 0.11075552
000250 23 d1 9c bc 9f 0a bb 3d 42 97 31 3b a8 25 01 3e
       -0.019142693 0.09132885 0.0027098213 0.12612021
000260 2d bb 9c 3d b1 b4 51 bb 39 d1 db bd 84 8a bb 3d
       0.076528884 -0.003199857 -0.107332654 0.09157279
000270 5c 3f b0 bd b0 85 d4 bc 18 a4 d3 3d 25 56 96 bd
       -0.08605835 -0.025942653 0.10334033 -0.073406495
000280 da a3 f0 3d 24 32 81 bd 8e 90 ad bd 79 ff c9 3c
       0.11750002 -0.06308392 -0.08474837 0.024657952
000290 c5 a2 07 3e 1b 0f ef bc 1a eb e4 3d 70 18 1a 3c
       0.13245685 -0.029182008 0.111776546 0.00940524
0002a0 a6 39 fa bd 56 4a cd bd db b0 a0 bd 2b d1 be bd
       -0.12218027 -0.10023944 -0.078462325 -0.093172394
0002b0 0c 80 e1 bd a1 8e a8 3d b4 8e 77 3d 0a 57 2a 3c
       -0.11010751 0.08230329 0.060438827 0.010396728
0002c0 85 df 70 bd c6 16 1f bd 84 65 ed 3c 71 56 f1 3c
       -0.058806915 -0.038840078 0.02897907 0.029460164
0002d0 d7 13 28 3d a4 d6 ac bd 52 8e c8 bc 56 53 94 bd
       0.041034546 -0.08439377 -0.024481926 -0.072424576
0002e0 67 eb d8 bc 64 90 89 3c 20 17 be bc e0 c5 6c 3d
       -0.026479436 0.016792484 -0.023204386 0.057805896
0002f0 f9 19 5b 3c 5a ed 08 3b 4b 63 6b 3d 4e af 52 bd
       0.013372892 0.0020893426 0.05746774 -0.051436715
000300 f0 b8 9a 3d 11 f5 d7 bc fe 8e 8a 3d 3b 07 0f bd
       0.07554805 -0.026361974 0.06765555 -0.034919005
000310 91 d0 a1 bd 9a 8a 04 be 1f 27 44 3d f7 ce 3f bd
       -0.07901109 -0.12943497 0.04788887 -0.046828236
000320 0f a4 c9 bd 98 12 77 bc 52 a9 ec 3d 4f 14 1c 3d
       -0.09845745 -0.015080117 0.11555733 0.038105305
000330 40 db 81 bc 87 d1 c3 bc 68 db 69 3d 44 73 06 3e
       -0.015851617 -0.023903621 0.057094008 0.13129908
000340 41 ea c2 3d 82 be c3 3d 3f 57 06 bd 81 e5 c6 3d
       0.09517337 0.09557821 -0.032798048 0.09711743
000350 b2 bb 74 bd 9a ea 98 3d 1b c9 68 bd da fe e5 3d
       -0.059749313 0.07466622 -0.056832414 0.1123025
000360 7f 0f b9 bd 25 a6 4d bd b4 95 fc 3d 13 c0 09 3e
       -0.09036159 -0.050207276 0.12333241 0.13452177
000370 fe e2 13 3d 5b 5b 02 3d 8c c4 90 bd 3f 81 3c 3c
       0.03610515 0.031825405 -0.07068738 0.011505424
000380 26 74 62 bb 2d ad ac 3d f4 28 84 3d a7 2c 3d 3d
       -0.0034554093 0.08431468 0.06453124 0.046185162
000390 75 8d 04 3e 57 d4 80 3d 70 a5 8b bd 18 ed 5e bd
       0.12944587 0.062905006 -0.06818664 -0.05442533
0003a0 cf 16 81 3d 62 28 bf 3d 0e e3 b7 3c 55 56 5d bd
       0.063031785 0.09333874 0.022447135 -0.05403741
0003b0 6a 73 d6 bb 92 f2 d7 3d 2c 2b 13 bc 86 17 cd bd
       -0.00654452 0.105443135 -0.008982461 -0.10014252
0003c0 61 83 8e bd 1f 11 53 3d fa 3d 92 3c 19 2a 46 3b
       -0.06958652 0.05153 0.017851818 0.0030237495
0003d0 a0 c9 5c bd 83 5c 5f 3d dd 9e 36 3c f4 0b ad 3d
       -0.053903222 0.054531585 0.011146274 0.084495455
0003e0 70 06 12 bd 85 68 86 bd 9d 48 cb 3d 94 d4 8e bc
       -0.03565067 -0.06562904 0.09925959 -0.01743535
0003f0 fa 11 1a bd 8e d9 f5 bc 2d 32 bf 3c 58 b8 b5 3d
       -0.0376148 -0.030010965 0.023339355 0.088730514
